ml/models/trained/lstm_classifier.pt (torch, 219471 bytes, 12 tensors)

lstm.weight_ih_l0 f4 [256, 5]
00000000: ddd4 36be 6712 39be 4639 3cbc 5492 243c
00000010: 9ef0 b63e 4f74 a9bc afee a9bd c04c 953c
00000020: c391 e0bd a8a9 2d3e d3d9 68bd ecd8 fdbd
00000030: 36ef 0ebd 13a7 1cbe 1cef 303e ef2d 19be
00000040: 90e5 90bd 91b4 2abe d87d ebbd 5354 7b3e
00000050: d7df 863e b0db 583e 2f05 263e 6998 aa3e
00000060: 3855 d33e b8e1 75bd e87a 25bd f6a1 b7be
00000070: aec3 a2be ced1 e8bd b860 c7bd 4e74 08bd
00000080: 95b8 c2bd 75f5 70bd 8f7f 49bd cbdd e13c
00000090: 84fe bd3d 9a99 ab3d 9248 083e 45a5 de3e
000000a0: c329 7a3e 74aa a23e 5b44 d83d 16ec 063f
000000b0: 1b8e 833f a9b6 2fbe c818 e43c 2909 47be
000000c0: 9787 01bd 2a0a a33e a216 a83d 5596 90bd
000000d0: f6e1 603d f445 b0be 2600 0dbf 9890 5f3a
000000e0: c529 b6bd 3d11 293e e3a4 b33d 4162 24be
000000f0: ecac bdbe 873c c1be 3ff5 1d3e b0a2 0cbe
00000100: 05e7 83be 8823 e7bd 516a ef3c 311d e1bd
00000110: 29f5 47be 268a 2fbe 7211 1fbb f13f b0bb
00000120: 037a 00be eb09 d2bd b007 513e 6612 66be
00000130: 54ad 22be 91fa 54be d863 30bd 6cef a43e
00000140: 833f e0bd 2c58 8cbd bd7a 24bd 7f31 f1bd
00000150: cb44 8e3e 64f8 4ebe 159a eabd 3835 993e
00000160: 3fa5 753e 3dc9 c93d a56e 46be 1c58 1ebc
00000170: addb 2ebd 1d14 993e 3b8e c63d 0c12 fdbd
00000180: 8a23 243d ca61 35bd c633 623e 5f47 1c3e
00000190: 4d28 a9bc 2cfa aebe 5681 d4bd 9c59 aabe
000001a0: 925d 163e 1a0e a5bd 087a ffbd 28b3 e83d
000001b0: f510 563e 5db5 bb3e ef53 96bc 5ff4 19be
000001c0: f20b 03bc 652f 77bd 41a2 f73d d33f 833d
000001d0: 61d5 87be 0d87 83be 4c83 9ebe 3bcb 233d
000001e0: 2f8e b43d bca3 25be fb05 7d3d e700 f2bd
000001f0: 4fe6 0ebe d647 adbd d17e 8bbe 7577 2b3e
00000200: b267 763e 7f52 f73e ca9b e8bc 21fb c83c
00000210: e14a abbc e797 7cbc c540 e53d ec6f 5cbd
00000220: eedd 82bd c999 823e 78fe f33d c401 443d
00000230: 4011 be3d 8e10 903d 040c e33d 8714 953c
00000240: 7ced 2e3c a6f6 e2bd c5ac 2cbe 18e8 2a3d
00000250: f769 f43d 0f51 163e f2df 81be 7bf1 adbd
00000260: 10bc 6c3e 639c 863e 71f8 1bbd 421f 9b3d
00000270: 76a6 803e 144a 11be d062 b9bd a84b 623f
00000280: 284b 11bd 6133 d1bd 8478 0a3d 640a cebd
00000290: 3c66 e43d 0bf7 12be 9214 85bd da04 06be
000002a0: 5bbf 31be 6efc f43e c7d3 abbd 1696 803e
000002b0: 9415 a8bd cf7c 6dbc ab8f f83e 0d02 053b
000002c0: 62c1 163e db6b 4cbc e1c7 853e fb75 14be
000002d0: 2f51 9fbd b465 ebbd cd99 1b3e 6ed6 7f3d
000002e0: 1422 623e 85e5 1ebd eeb1 63be b2dd 58be
000002f0: b386 9e3c ae08 03bd 3493 86bc af5d 573e
00000300: 0b5d 483e 21b7 a5bc 2f8b c0be d253 fe3c
00000310: 557e d63d 5b8c 1cbe 9c44 6abc a760 69bd
00000320: 68b7 443d dfad 073e d61a 993e 9cfd 923e
00000330: c380 eb3e 700f 353c 7dea 553e 0767 b8bd
00000340: 4f16 8f3d 9833 093f 20bc a1bd b505 0cbe
00000350: efc8 a0be ea97 26be 343e c03d 7650 33be
00000360: 6cbe 27bd 5f8e 57bc cfdf b8bd 896d 333e
00000370: 1d21 47bd ec99 7abd 2564 813d c0ea dd3d
00000380: 7060 533e 8f9f d03d 3e32 443d 78c5 2dbd
00000390: 4b42 52bd 0c78 883e b003 11be f900 43be
000003a0: 1b4a 9b3d 63a1 6fbd d8fa cd3e 093e ad3d
000003b0: 3c42 00be 9a15 1ebe 72b2 8bbe 3833 ad3d
000003c0: f42c a8bd 509c 143c 5b2c 1ebc e49c c13c
000003d0: 6d8e 713c 685a 3ebd fdc9 09be 395f 113e
000003e0: bd65 92bd 1e4a debe 1993 60be 1bb2 a93d
000003f0: fb01 63be 6e29 ee3d 562e 063e 876f 35be
-0.17854638 -0.18073426 -0.011488264 0.010044653 0.3573045 -0.020685343 -0.082974784 0.018225074
-0.10965302 0.1695925 -0.05684836 -0.1239489 -0.034896098 -0.15298109 0.17278713 -0.14958929
-0.070750356 -0.16670443 -0.11498612 0.24543886 0.2634265 0.21177554 0.16212915 0.33319405
0.41275954 -0.060029715 -0.040400416 -0.35865754 -0.31789917 -0.11368142 -0.097352445 -0.03331404
-0.095078625 -0.058827836 -0.049193915 0.02757158 0.09277061 0.083789065 0.13308933 0.43485466
0.24429993 0.3177067 0.10559913 0.5270399 1.0277742 -0.17159523 0.027843848 -0.19437088
-0.03162345 0.31843692 0.08207442 -0.070599236 0.054902993 -0.3442837 -0.5507835 0.0008528321
-0.08894686 0.16510482 0.08771684 -0.16053106 -0.3704599 -0.3774149 0.15425585 -0.13733935
-0.2576219 -0.11286074 0.0292255 -0.10991896 -0.19527115 -0.17142543 -0.0024271873 -0.005378716
-0.12546544 -0.10255798 0.20413089 -0.22467956 -0.15886432 -0.20798708 -0.04306397 0.32213914
-0.10949614 -0.06852755 -0.040156115 -0.11777019 0.2778686 -0.20211941 -0.1145517 0.29923415
0.23988818 0.09852836 -0.19378145 -0.009664562 -0.042689968 0.29898158 0.09695097 -0.12356958
0.040072955 -0.044282712 0.22090062 0.15261601 -0.0206491 -0.3417524 -0.10376231 -0.33271492
0.14684132 -0.0805933 -0.124744475 0.11362296 0.20904906 0.36661807 -0.01835057 -0.15034626
-0.007998453 -0.060347933 0.12091494 0.06408658 -0.26529983 -0.25688973 -0.30959547 0.039988738
0.08816182 -0.16175741 0.06177328 -0.11816578 -0.13955043 -0.08460967 -0.2724519 0.16744788
0.24062994 0.48305127 -0.028394599 0.02453381 -0.020909728 -0.015417076 0.111939944 -0.053817675
-0.06389986 0.25507954 0.119137704 0.047853246 0.09280634 0.070344076 0.11086276 0.018198265
0.010676738 -0.11082201 -0.16862781 0.041725248 0.11934274 0.14679359 -0.2536617 -0.08493324
0.23118615 0.2629119 -0.03807873 0.07574321 0.25127 -0.14188415 -0.0905205 0.8839669
-0.035472065 -0.10214878 0.03380634 -0.100605756 0.11152312 -0.14352052 -0.06498064 -0.13087788
-0.17358153 0.4784884 -0.08390003 0.25114506 -0.08207241 -0.014495089 0.4854711 0.0020295412
0.14722207 -0.012476887 0.26129058 -0.14498131 -0.077791564 -0.11494008 0.15195389 0.062460355
0.22083312 -0.038793106 -0.22235844 -0.2117832 0.019351339 -0.0319907 -0.016427614 0.21031831
0.19566743 -0.020228924 -0.3760619 0.031045828 0.10473315 -0.15287916 -0.014298584 -0.05697694
0.048026472 0.1324992 0.29903287 0.28709114 0.45996675 0.011051044 0.20890231 -0.09004026
0.06986677 0.5359435 -0.0789721 -0.13674052 -0.314033 -0.16268888 0.09386864 -0.17511162
-0.040953085 -0.0131565025 -0.09027063 0.17522253 -0.048615564 -0.061181948 0.06317929 0.10835791
0.20642257 0.101866834 0.047899477 -0.04242465 -0.051332753 0.26654088 -0.14161563 -0.1904334
0.07582494 -0.05850352 0.4023044 0.08459098 -0.12525266 -0.15437928 -0.2728458 0.08457035
-0.08211699 0.009070471 -0.00965413 0.023634382 0.01474343 -0.046472937 -0.13455959 0.14196481
-0.07148311 -0.43415922 -0.21931113 0.08285924 -0.22168724 0.11628996 0.13103613 -0.17718326

lstm.weight_hh_l0 f4 [256, 64]
00000000: 029e 2f3e a8cb 383d 7d9b dcbd 63dd 6c3c
00000010: 6fbc 8abd a28c da3d fb58 3ebe c8e9 5b3e
00000020: 50a7 d73e 0854 c33d d7ce acbe 868e f7bd
00000030: 9ce0 d6bd 78de 64bd aeb7 153d 3cc4 fd3d
00000040: 1388 edbd e228 76bc fc35 d23c 92e8 d13d
00000050: 8c07 afbd f10b 1f3d 23a8 3c3e 5daa 093e
00000060: e1f8 2f3e 6843 d73d 59a5 7bbd 82fa 4e3c
00000070: c6c0 9bbd f0d1 5abe 7515 36bd c4c6 253e
00000080: 28ba c53e 995a de3d 320a 13bd ad38 983e
00000090: 1cc9 833c c738 873e 27e3 8ebd 6fa3 173c
000000a0: d857 2b3e 005d 283e b24c 31be f40b 6e3e
000000b0: 6968 45be 5661 453d f5dd 46bd fa8f 8f3d
000000c0: 81c9 553b 34b4 a0bd a596 73bd 72ae 80bd
000000d0: 7672 35bc 75cc b83d 0521 f8bd 091e 1dbe
000000e0: 2432 60be a36d 6ebd 4d20 b83d 5788 afbd
000000f0: cf2a 473d 621b 1cbd 33c1 9abe 9494 95bc
00000100: cb7e 5e3b 33da 84bd 170c a9bd dbf0 e73d
00000110: 2457 293d 3913 01be d778 283d 985c b8bd
00000120: b9f8 273d a917 423d 2e18 9cbe 405a 09be
00000130: 384f 123e 6652 8a3c caa9 123e 4e5c 94bc
00000140: b675 38be cd89 0e3d 4baf 71be a10a 503d
00000150: 5ff9 1b3d 8779 ae3d 33e1 723c 544c 2f3e
00000160: 27df 493e 17c9 6c3e 5102 72be 91ae 603e
00000170: 772a 883e 059d d6bd af7d 5f3e 4dc7 e63d
00000180: 44f9 883e de0c a6bd 5238 593d dfac a4bd
00000190: 39d1 a3bd 6d61 ac3d 037d 733d 11e1 613e
000001a0: 0f75 89bd 189e 5d3d 5a31 6bbc d6ac 313e
000001b0: d847 43bd 5922 dd3d c09e 14be b38d 9b3d
000001c0: 5451 38bc 193c 943e 3bc6 aebd a888 1abe
000001d0: 71c7 03be fdd7 30bd 201b dbbd cf19 223c
000001e0: 2360 70bd f465 8d3d e541 c53d df28 1ebe
000001f0: e9ea 9abd f607 7dbc 44c3 4e3d 9538 a03d
00000200: 073c 86bc 4a26 8cbb 6d5e 1abd 67fe 49bd
00000210: 6d77 57bd f994 033d 6da9 883d 474c f7bd
00000220: 6d9f 573d aae6 e13c ff8d d53c 6aec 2cbe
00000230: bba5 7cbe ced9 383d e887 42ba 98f2 08be
00000240: f476 2b3d ec52 b33d b7f3 1d3e a879 1f3d
00000250: 1419 a33e 75a7 a53d 7239 943d 6823 90be
00000260: 5417 da3d a243 d03d 794d c9bc 3ca5 523c
00000270: d834 c43a b5d4 8cbd 705f ccbd 400b 07bd
00000280: 42ca 0fbe 14e2 5a3e 0bb5 fabd 692b 80be
00000290: 0209 1bbe ed61 283d 4032 523c 1bca b43d
000002a0: 1ef6 aebb 1d8d 8b3d aaf6 32bd f23d 1cbe
000002b0: 895c b1bc 107a ecbd f7b2 38bd 1d71 edbb
000002c0: 37e1 893b e6b7 573e 28e6 00bd 1fb3 2bbd
000002d0: ba19 8cbd 5de2 9cbb 852c a3bc 8bf9 10be
000002e0: e499 0c3e 2062 f3bd da33 f2bc 3a98 3d3d
000002f0: c152 793d 509c 3abd 5c68 b63d b91e 563e
00000300: 2a64 88bb 4bd4 8ebd 0357 2b3d 0d79 35bd
00000310: af0a ea3c 90f0 653d 57d6 6ebd ea2b 373e
00000320: 2463 f93c 2956 653d f644 aabd 8c28 22bd
00000330: 2512 ed3d b841 653e 3544 2c3e be32 4d3b
00000340: 43f6 003c 0112 0c3e b107 2c3e 35b0 23bd
00000350: e13d 2fbe f8ba 143e bb0e 7e3d d69c 983d
00000360: 5172 663e 5272 033e a8c1 37bd e6f1 c4bc
00000370: 257a cd3d f546 833d 7510 0abd 0914 2a3e
00000380: f0bb 7c3e 464e fc3d 1163 9fbd 1147 bfbd
00000390: c67a a73b eb6a a73d 2bc9 303e b9f5 6fbd
000003a0: 86b2 9fbd dbaa 03be 7126 1bbd 0780 2b3d
000003b0: c2b8 f3bd a1dd 25be e2f2 f5bd d3e3 073e
000003c0: ca97 283d 48c4 a03d cdbf cf3d 814c 49be
000003d0: 5264 80bd f863 a73d b640 5dbe 484b 91bd
000003e0: 6806 28bd 7c2e abbc 1186 cf3b 62aa fdbb
000003f0: 9d83 ccbd c198 833d 6315 163e a0d4 15bd
0.17150119 0.045116097 -0.107718445 0.01445708 -0.06774222 0.10671355 -0.18588631 0.21475899
0.42119837 0.09537512 -0.33751556 -0.12087731 -0.104920596 -0.055876225 0.036552124 0.12390944
-0.1159822 -0.015024396 0.025660507 0.102494374 -0.08546361 0.038829748 0.18423514 0.13443895
0.17184784 0.105109036 -0.061436985 0.012632968 -0.07605128 -0.21369147 -0.044454057 0.16189104
0.38618588 0.10857124 -0.035898395 0.2973074 0.016087107 0.26410505 -0.069769196 0.009255274
0.16732728 0.16441727 -0.17314413 0.23246747 -0.1927811 0.04818853 -0.04855152 0.07009883
0.0032621326 -0.07846871 -0.059469838 -0.06283273 -0.011074653 0.09023372 -0.12115673 -0.15343489
-0.21894127 -0.058210026 0.08990536 -0.08570927 0.04862481 -0.03811205 -0.30225524 -0.018259324
0.0033950086 -0.06486931 -0.08254259 0.113252364 0.04134287 -0.12604989 0.041130867 -0.09002036
0.041008685 0.047385845 -0.30487198 -0.13413334 0.14288032 0.016884994 0.14322582 -0.01811042
-0.18013653 0.034799386 -0.23602025 0.050791387 0.038079616 0.08519273 0.0148241995 0.1711896
0.19714032 0.23123585 -0.23633696 0.21941592 0.26594898 -0.10479168 0.21825288 0.11268482
0.26752675 -0.08107923 0.053032227 -0.08040785 -0.079988904 0.0841702 0.059445392 0.22058512
-0.0671178 0.054105848 -0.014355028 0.17351088 -0.047675937 0.10797567 -0.14513683 0.07595386
-0.011249859 0.289521 -0.08533903 -0.15091193 -0.1286905 -0.043174732 -0.10698533 0.009893849
-0.058685433 0.06904212 0.09631709 -0.15445279 -0.07564337 -0.015443793 0.05047919 0.07823292
-0.016386045 -0.0042770253 -0.037687708 -0.049314883 -0.052604128 0.032124493 0.066729404 -0.120750956
0.052642275 0.02757581 0.026068686 -0.1688706 -0.24672596 0.04512959 -0.00074207643 -0.13373792
0.04186149 0.087560505 0.15425001 0.03893438 0.3185507 0.080885805 0.07237519 -0.28152013
0.10648981 0.1016915 -0.024573075 0.012856778 0.0014969362 -0.06876508 -0.09979141 -0.032969713
-0.14041999 0.21375304 -0.122415625 -0.2503312 -0.15140155 0.041109014 0.012829363 0.08827611
-0.005339398 0.068140246 -0.04369227 -0.15258005 -0.02165057 -0.11546719 -0.04509255 -0.00724615
0.004207756 0.21066245 -0.031469494 -0.04191887 -0.068408445 -0.004787727 -0.01991869 -0.14157693
0.1373058 -0.1188395 -0.02956574 0.046287753 0.060869936 -0.045559227 0.08906624 0.20910157
-0.004162331 -0.069740854 0.041831028 -0.044304896 0.028569547 0.05613762 -0.05830988 0.17887846
0.030442782 0.05599037 -0.083139345 -0.03958945 0.115757264 0.22388351 0.16822894 0.0031310762
0.007871213 0.13678743 0.16799809 -0.039962966 -0.17113449 0.14524448 0.062025767 0.07451789
0.22504546 0.12836578 -0.04486242 -0.024041127 0.10033063 0.06410018 -0.0337071 0.16609205
0.24681067 0.12319617 -0.07782567 -0.09339727 0.0051110713 0.0817469 0.1726424 -0.05858395
-0.077977225 -0.12858145 -0.037878457 0.041870143 -0.11900474 -0.16197826 -0.12009217 0.13270502
0.041160382 0.07849938 0.10144005 -0.1965809 -0.062691346 0.081733644 -0.21606717 -0.07094437
-0.041021734 -0.020896189 0.0063331206 -0.0077412585 -0.09986041 0.0642562 0.14656596 -0.036579728

lstm.bias_ih_l0 f4 [256]
00000000: c080 d2bd 34eb 863d e375 82bc f05e 75bd
00000010: f64f 363e 277d e2bd e404 7cb9 d4a5 6bb9
00000020: ac0d 0d3d d919 3e3d 7dec 773e 3699 a03d
00000030: 3036 633e 0ad4 033e 5729 c83d 8253 03bd
00000040: 682f 36bd 785a 91bb 95c2 8ebd 2ad5 4d3c
00000050: 602f 203e 4be3 623b 1683 afbd 82fb 14bd
00000060: 007f 8f3e 628a cc3d 8a2b 403d 9876 cd3d
00000070: fee6 3f3e 0f2b 073e 35bb 56bd 157c e4bd
00000080: 4d21 753d 88d0 21bd 8d83 9a3d 3d3d 7b3e
00000090: b3ab 663d 647b 7dbd 444e ad3d 6eb7 7a3b
000000a0: 30f2 1bbd 11fa 98bc 44bd 693e 8e61 c8ba
000000b0: a235 973d 8a56 6d3d a5ed e23d ea8e 953d
000000c0: 050e 223e 8631 063e 9cad acbd 0836 b23d
000000d0: 1592 26bc ea50 fabd 2fe4 873e c6ad abbc
000000e0: e586 bf3c d118 023e b1bc c53d 2af2 2d3e
000000f0: a68b d7bd 0fd9 1c3e 8373 9e3d 3f0a 31bd
00000100: a2c0 d7bd 4f75 c7bc 03c4 84bc 5630 513d
00000110: 9449 863d e8dc 633e 5923 033e e2f1 25bd
00000120: 0154 893e 574c d8bb 723b d8bd a58a c23d
00000130: 768c 033e 05cf a73d 9df0 90ba 184b 073e
00000140: 298a 943c 34f7 ddbc b5fb f53d 658b 843d
00000150: 5476 e13d aa35 1c3e 3352 2e3e 8846 82bb
00000160: faba 753e 38fe f13c fd27 2ebc 3962 8d3b
00000170: eaa9 95bd 01fc 413c 7106 0abd a7d3 593e
00000180: 8740 e1bc d01e 383e 47ad 033e d098 e53d
00000190: 5ed2 ba3d 5a88 6e3d 7019 793d b1aa 7f3d
000001a0: cad7 3f3e 4503 263d e1ee ba3d 29fa 14bd
000001b0: 0cf9 abbd 3a1d 663c 1bd2 9e3c 3b68 bd3d
000001c0: 19ed 6f3d 53b9 823e 2b16 3f3e cac8 653e
000001d0: 3824 a1bd 80f6 1e3d 473d bbbd 8ed1 4139
000001e0: d7c1 8b3d ee84 413d 80cb 77bc 1d85 4bbd
000001f0: fb7b 773d ee96 1abe eb11 da3c 86ab ddbd
00000200: 148b 62bd a680 b6bd b5fd 943d 71c9 59bc
00000210: 84bb 06bd 621b 1dbd 482e 7e3d f642 40bd
00000220: ef73 d13d 1504 d4bd f158 a0bd dd2d 2f3d
00000230: b191 a9bd a1fc 0ebe 9cac 8abb 38f2 22bd
00000240: a59f ffbc 76fa 423d ce66 81bd 4ebc e1bd
00000250: e6a0 e73d 3e64 c8bc 9120 e23c 6961 8fbd
00000260: 5dbd 513d e71e 31bc a6f4 d3bb 4706 72bc
00000270: a9ef 21bd 8ae6 abbc ac4b d03d f08b de3d
00000280: 46f8 b93d b2f2 55bd 283a f53d b728 d5bd
00000290: 45f9 d3bd ead4 3e3d e9f9 0d3e f72b d8bc
000002a0: dcba e5bb 8ff1 c03d 9524 a5bd b00d 133d
000002b0: 8719 343d d6a9 ad3c 4c84 8fbc b03c aa3d
000002c0: 950a d63d 0ce6 ed3d b889 3cbd e5a4 b6bd
000002d0: e630 d5bc 6968 1e3a c220 2bbd 81cc b33c
000002e0: a40e 6f3d 5d00 043d 9f44 4d3b b46c c93c
000002f0: 51ec ea3d b635 07bc 6e04 c8bd b830 0b3d
00000300: d8c8 ccbd 21f1 8c3c a369 ad3d 79ac adbc
00000310: dd16 bf3c 137e d6ba 470f 2bbd 1a17 ae3d
00000320: 8858 813e f84f 5cbd f2b8 4a3e b443 82bd
00000330: 6cd6 2e3e 5668 193e 87ea 89bc 969b a6ba
00000340: 857c df3b 178e c93d ac7f a63d 24b8 e2bd
00000350: c1f0 e63d 6876 8cbd 48ad 093d 7206 1b3e
00000360: 9486 893e 1e6a 2e3e 68a2 fd3d 0910 6a3e
00000370: 1738 e63d 4bcb 263e 60d9 103d 6ff9 8abc
00000380: d58b 2f3e 8bad a53d fe16 c03d 1eaf be3e
00000390: 1433 95bd 5464 99bd d423 6b3b a49c 9ebb
000003a0: ffbd 063e e5de d43d 9fac 9c3c 2be6 be3b
000003b0: 0ec3 56bd 041c c43d 9479 ad3c 2ae0 093d
000003c0: 73aa 423e 0af2 643d 3f31 ab3d 1b16 083e
000003d0: 22a3 883d 8d57 da3d d3c0 353e f403 e53c
000003e0: fc46 0f3e 7880 ab3e bc66 fa3d ab0a 003e
000003f0: f0b4 ffbd 4248 5f3c 34ef 5bbb 569f 8a3d
-0.10278463 0.0658783 -0.015925353 -0.059904993 0.1780394 -0.11059027 -0.00024034415 -0.00022473122
0.034436867 0.04641137 0.24211307 0.07841723 0.2218864 0.12873855 0.0977351 -0.03206206
-0.044478804 -0.0044358335 -0.06970707 0.012563029 0.15643072 0.003462034 -0.085699245 -0.03637267
0.2802658 0.09987332 0.046916522 0.100323856 0.1874046 0.1320002 -0.05242463 -0.11156479
0.05984621 -0.03950551 0.075446226 0.2453508 0.05631609 -0.061885253 0.084621936 0.0038256305
-0.038072765 -0.018673928 0.22826105 -0.0015287863 0.073832765 0.05794386 0.11080483 0.07302649
0.1582566 0.13104829 -0.08431551 0.08701712 -0.010166665 -0.122224644 0.26541278 -0.020956885
0.023379752 0.12704779 0.09655131 0.1698691 -0.10524683 0.15317176 0.07736876 -0.043222662
-0.10534789 -0.02434793 -0.016206747 0.051071487 0.06557003 0.22252238 0.12806453 -0.04051388
0.26821902 -0.0066008973 -0.10558213 0.094991006 0.1284655 0.08193783 -0.0011058036 0.1321224
0.018132286 -0.027095415 0.120109 0.064719 0.110088974 0.15254846 0.17023544 -0.003975693
0.23997107 0.029540166 -0.010629651 0.0043146876 -0.07307799 0.011839868 -0.03369755 0.21272145
-0.02749659 0.17980504 0.12859069 0.11210787 0.091221556 0.058235504 0.060815275 0.062418643
0.1873466 0.04053046 0.09127594 -0.036371384 -0.08397111 0.014045054 0.019387295 0.09248396
0.058575723 0.25532016 0.186608 0.22439876 -0.07868236 0.0388093 -0.09142547 0.0001848398
0.068240814 0.047245912 -0.015124202 -0.049687494 0.06042097 -0.15096638 0.026619872 -0.10823731
-0.055308416 -0.089112565 0.07274953 -0.013292656 -0.032893673 -0.038356192 0.062055856 -0.04693886
0.10227191 -0.10352341 -0.07829464 0.042768348 -0.082797416 -0.13963558 -0.0042320024 -0.03978178
-0.031204054 0.04760214 -0.063184366 -0.110222444 0.11309986 -0.024461862 0.02760342 -0.070010014
0.05120598 -0.01081059 -0.0064683734 -0.014772004 -0.0395352 -0.020983953 0.10170683 0.10866535
0.090805575 -0.052233405 0.11973983 -0.10408156 -0.10350279 0.04658977 0.13864864 -0.026388152
-0.0070108008 0.09421074 -0.08063618 0.035901725 0.043969657 0.021199148 -0.017519139 0.083123565
0.10451237 0.116161436 -0.046029776 -0.0891817 -0.026024293 0.000604278 -0.041779287 0.021948101
0.05836357 0.03222691 0.003132142 0.024587967 0.11470855 -0.008252552 -0.0976647 0.03398201
-0.099992454 0.017204823 0.08467414 -0.021200405 0.023326332 -0.0016364477 -0.041762616 0.085005
0.25262856 -0.0537872 0.19797114 -0.063605696 0.17073983 0.14981207 -0.016835464 -0.0012711163
0.006820264 0.098415546 0.0812982 -0.11070278 0.11276389 -0.06858522 0.03361252 0.15139177
0.26860487 0.17032668 0.12384492 0.2285768 0.11241167 0.16288488 0.035363555 -0.016964642
0.17143185 0.08089741 0.093793854 0.3724298 -0.07285133 -0.07489839 0.003587951 -0.0048404504
0.13158415 0.10394076 0.01912528 0.005825778 -0.052432112 0.09575656 0.021176137 0.033661045
0.19010334 0.05589489 0.08359002 0.13289683 0.0667174 0.1066123 0.17749338 0.027955987
0.13991922 0.3349645 0.12226626 0.1250407 -0.12485683 0.013628067 -0.0033559324 0.06768672

lstm.bias_hh_l0 f4 [256]
00000000: 2c55 c2bd 37a5 123e cf0d afbc d927 473d
00000010: 0bbf f6bc 4de2 95bd 9c9e 2f3d de5b 13bc
00000020: 0412 7ebc 81ce 1d3d d161 443e 3603 02bd
00000030: afcc 343e 8bce 4e3e d84c 1e3e 35b9 25bb
00000040: 2f22 a4bd e760 0dbe 6c43 16bd 8412 c63d
00000050: 404e 743e b760 10bd 5542 9cbd 1a44 2a3d
00000060: e8fe 163e a486 473d c4d8 4d3d 8b36 e53d
00000070: 3ee4 5d3e 17ea a33d a545 8d3c 9cd2 06be
00000080: 4617 b1bc d7be 293d b688 443e 5b10 993e
00000090: 163f b33c a164 36bd 5afe d33d 9f0e 253e
000000a0: ba65 cabd f703 b93d 798d d13d b910 c6bd
000000b0: ba9e 083e f9bd 453b 3ada ea3d f613 443e
000000c0: 5e84 ed3d 8287 303e b981 19be 1cc5 f43d
000000d0: 72db 9b3c ea46 c13d a5ad 7c3d 28c1 30bc
000000e0: 7322 273d b110 d13d ad75 08bd 0a68 c93b
000000f0: bdf3 13be 72dd 943d 347e afbd 8d5e 42bd
00000100: 68d1 06be b77a 9abc fe53 c03c 72ba c5bc
00000110: 2d50 203d 035b e53c 557c 3a3d dc49 6abe
00000120: fc64 823e 3efc b93d a802 8dbd 15d1 09bd
00000130: 3f75 a1bc c7e0 b23b 7f98 473c 04e7 553c
00000140: 35da c2bd 937f 483e 7028 893a fb36 063d
00000150: 2980 083e c665 113e b731 663d d4fa eb3b
00000160: ca19 3d3e 89eb 34be cb11 9b3d 01a0 67bd
00000170: 9c22 d2bd b574 563d 219b d53d 3cd5 4f3b
00000180: 3c76 b9bd 8b74 e8bc 24f9 803c eda4 3f3e
00000190: f708 94bd 125e f23c 0094 0d3e 466a d43d
000001a0: 70c8 73bc 886a 683d 15a0 233d 9c57 f53d
000001b0: 8fb6 203e 1144 ca3c da17 bd3b 0d70 f7bc
000001c0: 49b4 883d 121c 8b3e e367 393e 5edd 4f3e
000001d0: abac aa3d adbf b3bd 010d febd e578 8bbd
000001e0: 0cec db3d 526c 52b9 ca36 0d3e b361 08bd
000001f0: 4cf2 8abd a092 06bd 04bd 10bd fc24 a4bd
00000200: b863 0a3d 5e2a fd3c 1d42 fabd 7b66 393b
00000210: 3429 1abd f7f5 f23b 3dd1 06bd d105 98bd
00000220: 307e b03c e366 91bd 3638 853d 41b1 6abd
00000230: 0fb8 c9bb c63a 513d 8391 8a3d fcc8 d03c
00000240: 6099 50bd cfef babc 1dfb 9a3c 61a2 85bb
00000250: fec0 233c 6b53 bcbd 376a ad3c 4344 b1bd
00000260: 5800 973d 8638 3b3d 928c 27bd 22d0 8bbd
00000270: 571c 473d c8e1 9c3d 26c7 2f3a 92a5 8bbd
00000280: 2499 41bd 34db 73bd 1b01 6cbd 732b 9cbd
00000290: 6c1f 1ebd 182f 55bd 2faa 6fbb 62ee ad3d
000002a0: d247 9f3d d0df 7f3d d1b7 9e3d 26b1 3dbd
000002b0: ad45 313d 4242 cebc 77e2 2bbd ae26 0ebd
000002c0: 5aca 963d e849 69bb 0572 a4bd 374b 883d
000002d0: bfba d53d 35be 3b3d 8780 b6bd 446d 21bd
000002e0: af03 5d3c 5b91 4fbd f65e 20bc 94fd 2ebc
000002f0: 685e e3bc e32e c23d 26b3 8e3d 1a12 993d
00000300: 9714 44be 73b8 58bd 6f45 583d bcbe 003d
00000310: 96f2 903d 8365 7ebd fbfe 433e 3d33 35bc
00000320: baf7 b53d 2949 e83d 4a73 293e cbca 813d
00000330: 46de 1c3e 26cc c43d d615 cb3d d21e d2bd
00000340: 3b76 e7bd 5273 3abd 0045 c53d 1bd1 c3bc
00000350: a452 223d d816 acbc 7fda e43d cc48 173d
00000360: 4a0d c23d 6e7f 183e dc75 f83c 9104 4c3e
00000370: bb42 c73d 59dc de3d 5037 463e 2f9e fc3d
00000380: e3d3 2a3e 8545 093c a6ee f83d ccf4 bc3e
00000390: 216f 38bd fcc3 e6bd 45ab a13d dee5 133b
000003a0: d40b 853c bd18 bc3d 21cf 383d 2159 863c
000003b0: 5833 88bd 9508 133e a792 d63d 0c77 9d3d
000003c0: 2f63 103d efc1 9b3d d9e8 403c b3dc b93d
000003d0: 1b0c de3d f1cb a43d 8488 463e c57d e9bd
000003e0: afab aa3d 8e54 433e 1566 013e e1d0 153e
000003f0: 635a 15be 6b7e f43d b5b2 4d3e ca2a ddbd
-0.094889015 0.14320837 -0.02136889 0.048621986 -0.030120393 -0.07318554 0.04287587 -0.008994071
-0.015507225 0.038527016 0.19177939 -0.031741343 0.17656206 0.20195977 0.15459001 -0.0025287394
-0.080143325 -0.13806497 -0.036685392 0.096715 0.23857975 -0.035248484 -0.07629839 0.041568853
0.14745677 0.048712388 0.050255552 0.11192044 0.21669099 0.080036335 0.017245123 -0.13166279
-0.021617543 0.041441765 0.19192776 0.2989529 0.021880668 -0.04452956 0.10351248 0.16118859
-0.09882684 0.09033959 0.10232062 -0.09671158 0.133418 0.0030173047 0.11467405 0.1914824
0.11597513 0.17239192 -0.14990892 0.11951658 0.019025538 0.09437354 0.061689038 -0.01078824
0.040804338 0.10208262 -0.03331535 0.0061464356 -0.14448448 0.072688 -0.08568993 -0.047453452
-0.1316582 -0.018857343 0.02347755 -0.024136756 0.03913896 0.0279975 0.04552873 -0.22879738
0.2546767 0.090813145 -0.06885272 -0.03364666 -0.019709228 0.0054589245 0.012182354 0.013055567
-0.09514276 0.19579916 0.0010464322 0.032767277 0.13330139 0.1419898 0.056199756 0.007201532
0.18466869 -0.17667975 0.07571753 -0.056549076 -0.102605075 0.052357394 0.10429979 0.003171279
-0.090557545 -0.028375885 0.0157438 0.18715258 -0.072282724 0.029585872 0.13825989 0.103718325
-0.014879331 0.05674222 0.039947588 0.11979601 0.1569464 0.02469066 0.0057706656 -0.030204797
0.06675012 0.27169853 0.18106036 0.20299289 0.08333715 -0.08776794 -0.12404824 -0.06810168
0.10738382 -0.00020067513 0.13790432 -0.0332963 -0.06784496 -0.032854676 -0.03533651 -0.08014867
0.033786505 0.030903991 -0.12219641 0.0028289843 -0.03763695 0.007414575 -0.03291439 -0.074229844
0.021544546 -0.07099702 0.06504862 -0.05729795 -0.0061559747 0.05108144 0.067660354 0.025486462
-0.05092752 -0.022819428 0.018918568 -0.004078195 0.009994743 -0.09195598 0.021168811 -0.08655598
0.073731124 0.0457082 -0.040905543 -0.068268076 0.04861101 0.07660252 0.00067053956 -0.068186894
-0.047265187 -0.05953522 -0.05761824 -0.07625475 -0.038604185 -0.052046865 -0.0036569943 0.084927335
0.077773705 0.062469304 0.07749904 -0.04631152 0.04327934 -0.025178079 -0.04196402 -0.034704857
0.07362814 -0.003559703 -0.0802956 0.06654971 0.104360096 0.045835692 -0.089112334 -0.039410844
0.013489648 -0.05067573 -0.009788265 -0.010680575 -0.027754977 0.09481599 0.069677636 0.07474156
-0.1914848 -0.05291028 0.052800592 0.0314319 0.070775196 -0.062108528 0.19140236 -0.011059579
0.08885141 0.11342079 0.16547886 0.06337508 0.15319166 0.09609251 0.09916274 -0.10259785
-0.113018475 -0.045520134 0.09632301 -0.02390342 0.039629593 -0.021006986 0.11174487 0.03693466
0.09475191 0.1489236 0.030329637 0.19923617 0.09729525 0.10881872 0.19357038 0.123348586
0.16682391 0.008378391 0.121548936 0.36905515 -0.045027856 -0.1126785 0.07893995 0.0022567431
0.016240992 0.09184406 0.04511941 0.016399922 -0.06650418 0.14358743 0.104771905 0.07688722
0.03525084 0.07605349 0.011774265 0.09075298 0.10842153 0.08046711 0.19388014 -0.11400942
0.08333527 0.19075224 0.12636597 0.14630462 -0.14585261 0.11938175 0.20087703 -0.10799177

lstm.weight_ih_l1 f4 [256, 64]
00000000: 6c4c 053c e992 9dbd b38b a03c 2cde 1abc
00000010: fa4c 8fbe f7f8 413e 7d5e b83d d3c1 413e
00000020: 6e11 e93d 0b16 95bc a28f 443e cfe4 5a3d
00000030: 7d45 fc3d 34f7 ad3d 252a 1c3e 6be8 d1bd
00000040: 96b9 d3bd b8da 23be 5502 11be 6d3f b0bd
00000050: 9206 70bd 3f82 48bd 77f5 8f3d 25ed da3c
00000060: 0498 3cbd 6ce9 e13d 331f 823d 7ddb 86bd
00000070: df37 0bbc 9e23 183d e141 143e 396d c83d
00000080: 8a5f b33c 0f1d 88bd 3a78 ebbc 7120 0d3e
00000090: 344b 02be 8ce5 243e 5bdf 5cbe 0e93 64bd
000000a0: 0b25 213e ca73 223e da9d 52bd a73e c7bc
000000b0: 4ef7 9fbd cfd5 0a3e 80f3 edbd 9c7a 4ebe
000000c0: badf 60be 7c3b 93be 7b2f 61bd 1a3c 033e
000000d0: b39d 57be cbcc 8fbd d0a1 a5bc 5fe0 db3d
000000e0: 8f57 173d e8d3 8fbd 1e59 52bd caaf 1f3e
000000f0: ffde 5bbe fc4d 0f3e 2068 9bbd df59 8a3c
00000100: 6391 4d3d bd3f 4fbe 6614 0d3d 25d9 e8bc
00000110: 6227 b2be c252 6e3e a888 c43b a7b3 cdbd
00000120: c17c bf3d 07fb 59be e659 133e 3873 c2bd
00000130: 3110 35bc f418 583b 6eea c4bb 5fce 5dbe
00000140: 3b9b 24be a06a e6bd 38dd 073d 3403 34bc
00000150: 6305 c4bc 79f2 2cbe 7719 133e 043b 66be
00000160: a943 893d e9c9 74bd e573 babd 43e4 15be
00000170: 2119 4a3d 2618 993c ac1a 84bc 34b0 103c
00000180: 2446 0e3e a42e eebd 7829 f13b 1626 6b3e
00000190: 8ddf 0abc a483 3f3e a8f1 5e3c bde4 88bd
000001a0: f9b3 a73d 25a5 9e3c 13b0 59be 13ea 0cbd
000001b0: 1f4f 963d 7287 ffbc d2e6 fdbd 9c99 65bc
000001c0: f26c 7d3d 2fbc 53bd b8f4 91bd 966f 263e
000001d0: fa59 8fbd d088 113e 4bfd d0bd 329f 8cbd
000001e0: 0085 eb3d da9d 343d 42ef 363d fc36 283c
000001f0: 3ea7 9abe 69cc 99bc 485d 26be 2c3b 97bd
00000200: 77c4 8fbd bcd2 eabd 5b35 31be 8a72 513d
00000210: d43c 1ebe 69d9 833d ad50 8f3d 89b2 553d
00000220: 9c31 1d3e 61b8 7fbe fccb c83e b376 f2bd
00000230: 4897 c93d 6259 d73d 50d1 5a3d 9b7c b8bc
00000240: aa33 68bc 8f91 823c 5de0 eabd b22a 4fbd
00000250: 80f9 43bc bb11 0fbc d952 a63d 083c 0bbe
00000260: 75e6 943d cc7c 653e 2e16 db3d bdb0 94be
00000270: 7998 b93a 47bc a83d 45da 4e3e 6959 633d
00000280: 7a82 2e3e 2c2c 31bd 0155 69be 1790 683e
00000290: 7ba3 04be 872d ddbc a38c 9e3d 35e6 17be
000002a0: 3523 2e3e 3f7f 4c3e ea0b 393e 7244 27be
000002b0: d577 c93d 3118 f8bd c859 6fbe 5173 803b
000002c0: dd35 c83c 2144 c9bc d010 b4bd b154 123e
000002d0: ed2d 9e3c 7a59 ecb9 2413 d0bd 6e03 3fbe
000002e0: 2868 283e 53ad 72bd b325 2c3e a8fa 903e
000002f0: c9bf cdbc 2129 6f3d 29c9 31be 5920 20bd
00000300: cbb2 923e cb6a bc3d d864 8bbe 898e c23e
00000310: 996d 82bd 29dd ccbe c0da 93be f6b3 553e
00000320: e26f d53e 4e5f 81be bc8c 553d c1d0 493d
00000330: 1165 273e c592 30be cc6e 873e 6939 bbbd
00000340: b3d5 93be 1198 fa3c 4e6c dcbd 08af d3be
00000350: e3a1 b1bd af5f 823e 9489 1f3d bfb0 b23e
00000360: 4944 0f3f 9948 8e3e 315d 69be 5b4d 2d3e
00000370: 7e3a 15be ea07 8bbe 15b3 773e 937d 123e
00000380: c296 af3e c9bf 8abe 532e 743c 1754 343c
00000390: 1d2c 683e f88e c0be eff7 a73c 7413 a03e
000003a0: bbf6 6d3e 5c48 893e 6d51 9ebd d3d8 d6bd
000003b0: 4208 9cbd 77f1 a0be 0d46 e6be fc58 ed3e
000003c0: f4e4 153e 99c0 833d 3c7d 0c3e 9105 d2be
000003d0: cbe1 f8bc 316d 9b3e ffee 07bf bfab da3e
000003e0: b240 38be 61db 5dbe c803 283f 9062 d73c
000003f0: ee0a 8a3e a2e6 d13e c113 19be a73a 06bf
0.008135896 -0.076940365 0.019597864 -0.009452384 -0.27988416 0.18942629 0.09002397 0.18921594
0.113802776 -0.018198987 0.19195417 0.053440865 0.12317941 0.08494416 0.15250452 -0.10249408
-0.10338132 -0.16001403 -0.14161046 -0.086058475 -0.058600016 -0.048952337 0.070292406 0.026724407
-0.04604341 0.1103085 0.06353607 -0.06584833 -0.008497207 0.037143342 0.14478256 0.097864576
0.021896143 -0.066461675 -0.028743852 0.13781907 -0.12724 0.1610319 -0.21569578 -0.055804305
0.15736787 0.15864483 -0.05142007 -0.024321867 -0.078108415 0.13558124 -0.116187096 -0.2016396
-0.21960345 -0.2875632 -0.05497692 0.12815896 -0.21056251 -0.07021483 -0.02021876 0.10736155
0.036948737 -0.0702284 -0.05135452 0.15594402 -0.21471785 0.13994592 -0.0758822 0.016888557
0.05018748 -0.20239158 0.03444328 -0.028423855 -0.34795672 0.23273757 0.005997736 -0.100440316
0.09349967 -0.21287166 0.14389762 -0.094946325 -0.011051224 0.0032973858 -0.0060093915 -0.21660756
-0.1607484 -0.11250806 0.033169955 -0.010987092 -0.02392835 -0.16889371 0.14365183 -0.2248345
0.06702358 -0.05976287 -0.091041364 -0.14637856 0.04934037 0.018688273 -0.016126 0.008831073
0.13893944 -0.1162999 0.00735968 0.22963747 -0.00847615 0.1870256 0.01360742 -0.06684253
0.08188624 0.019365856 -0.21258573 -0.034402918 0.0733931 -0.031192515 -0.12397541 -0.014013674
0.061871476 -0.051693138 -0.071267545 0.16253504 -0.069995835 0.14212346 -0.10204562 -0.068663016
0.11499977 0.04409585 0.044661768 0.010267016 -0.3020572 -0.018774228 -0.16246521 -0.07384333
-0.070198946 -0.11465976 -0.1730551 0.051134624 -0.15452892 0.06437952 0.069978096 0.052172218
0.15350956 -0.24972679 0.39218128 -0.11839046 0.09843308 0.10515095 0.053422272 -0.022520354
-0.014172474 0.015938548 -0.11468575 -0.050577827 -0.011961341 -0.008732255 0.08121271 -0.13597119
0.07270519 0.22410887 0.1069759 -0.2904109 0.001415982 0.08239036 0.2020045 0.05550519
0.1704196 -0.043255016 -0.22786333 0.22711216 -0.12952988 -0.026999248 0.07741668 -0.14833911
0.17005618 0.19970416 0.18070951 -0.16334704 0.09837309 -0.12113989 -0.23374093 0.003919997
0.024439747 -0.02456862 -0.08792269 0.1429012 0.019309008 -0.00045080093 -0.10159901 -0.18653652
0.16445982 -0.059247326 0.16811256 0.28316236 -0.025115864 0.058388833 -0.17361893 -0.03909335
0.28652033 0.09200057 -0.27225375 0.3799937 -0.0636856 -0.40012482 -0.2887783 0.20869431
0.41686922 -0.25268024 0.052136168 0.04927135 0.16347148 -0.17243488 0.2645172 -0.091418095
-0.28873977 0.030590089 -0.10762845 -0.41344476 -0.086734556 0.25463626 0.038949564 0.34900472
0.5596357 0.27789763 -0.22789456 0.1692404 -0.14573094 -0.27154475 0.24189408 0.14305715
0.34294707 -0.27099445 0.014903623 0.011006377 0.22673078 -0.37609076 0.020503966 0.31264842
0.23238651 0.26813018 -0.077303745 -0.10490575 -0.076187626 -0.31434223 -0.4497532 0.46356952
0.1463812 0.064332195 0.13719648 -0.41019872 -0.030381104 0.30356744 -0.53099054 0.42709157
-0.1799343 -0.21665718 0.6563077 0.026292115 0.26961464 0.4099627 -0.14948942 -0.52433246

lstm.weight_hh_l1 f4 [256, 64]
00000000: 4eaa 163d d679 a0bd c53f 353c 6968 6e3d
00000010: 8ba9 52bd 2e5a 253c cf41 edbd 6f1f a1bd
00000020: 5818 87bd 21fd f13c 39bf 6ebd 96ff cbbd
00000030: 7e33 9abd 25b8 7ebd 0dc0 583c 8194 a33d
00000040: e1e9 4b3d d7e7 d73d c338 f4bd a322 8ebd
00000050: 59ec 78be 94ff 213b c3bb a1bd b60b a8bd
00000060: ceef 203d f626 d4bd ab45 8cbe d877 9a3d
00000070: 80f8 d7bd 199d 9f3b 6b15 e03b c9fc 4fbc
00000080: 5b2d 73bc 529f a8bd 8291 21be 2c36 59be
00000090: 874d dfbd a644 42bd 4ad0 2e3e d24d 743d
000000a0: 2d09 3bbd ca27 a93c 41e5 98bc 2776 0e3e
000000b0: dfe0 293c 1588 c83d 2b8c 5a3b 47e8 39bd
000000c0: 57ee ca3d 6725 bebd 0007 08bd d301 a33d
000000d0: ac7c e63c 602f d5bc e8e2 b8bd d033 a9be
000000e0: 4577 99bd 97d8 15be 123a ef3d a76e bf3d
000000f0: 5983 c5bc c205 42bd dfc9 7b3d 19cf 6c3d
00000100: 1d91 e23d e9ae febc 394a b93c 7ef0 913e
00000110: 9d11 313d 7e02 163e b7fc a03d 6467 0a3e
00000120: b7f5 093e 6d0e 85bd 7eba 18be dbcd f9bd
00000130: ab67 a1bc 3132 453d 87f1 cb3d b0ab e5bd
00000140: 8579 e4bd 0745 273d 646c 8e3d bd9d 21bd
00000150: 801e 2dbe 860e a9bd 2df3 c2bd 0999 debd
00000160: b78e 8fbd 755e f8bd e2a7 4b3d 5296 d63d
00000170: d3d4 f43d da94 1b3e 3a3e 683d e628 dd3d
00000180: 026c b9b9 a3f2 f63d 62ed 153c 17f9 edbd
00000190: 4bbb 95bc f8d4 e23d bde9 5b3b 58e3 973d
000001a0: 6bbf 273e 15f2 1e3d 5b7b 4fbd 0515 8a3c
000001b0: d494 f83c 838d 353e c77f bebd 4a82 d43c
000001c0: a3d6 26be 8978 c2bd 4997 36bc 7aa4 823d
000001d0: 5346 b8bd 7e88 903d 7ef8 d4bd 3db6 4cbd
000001e0: 5627 963d 08eb 1ebb 7051 5ebd bbd7 c2bc
000001f0: cd06 413d 6860 b5bd a011 483d 2e20 b9bd
00000200: 4457 653d 1c28 30bc 26a2 543e 0213 573e
00000210: 7a52 8eba 6899 1c3c e27d f73d 74fa 1cbc
00000220: 84d7 b93d 2131 cebd 496f 763d 7a25 43be
00000230: aa49 0b3d 4650 cdbc ef0a 213e 88f0 703c
00000240: 1253 08be a582 10be 0292 68bd 0c77 4e3e
00000250: 838d cdbd 9498 28be 9424 2f3e 5835 993c
00000260: 0438 233d 66ed 233d 8909 39be 22e9 f8bd
00000270: b6ab abbd 6ee4 133c 42f3 593d d0fa cbbd
00000280: d11a 2dbe cf77 9dbd e438 573c 2f61 05be
00000290: b569 c9bd a852 ad3c 789e 9f3d 8ff3 24bd
000002a0: 2603 54bd 57cd bd3d a05a 08be 532d b13d
000002b0: 1903 9e3a d418 0f3e 7166 3a3e 0d1b 1c3e
000002c0: 421e 7fbd 14c6 e83b 6fe2 b1bd 58ed fe3d
000002d0: e6d6 7e3d cf10 56bc f928 1f3e 9e0a 43be
000002e0: 8ae1 dcbc 00c8 f53c c008 e73d 7427 b63d
000002f0: 9797 70bd 3429 3b3e a572 0cbe eb4c 54bb
00000300: f157 3cbe c949 983d 09fb 47be 214a ce3e
00000310: 991e b83d c6eb 7bbe ef40 6dbe 7f54 d4bd
00000320: ecac 34be c214 83be 5e98 923e 9a3a 693d
00000330: 5d29 c93e c257 813e d632 dcbd 920b 693e
00000340: f9dd 513e af3d 213d eb28 c5be 96a5 77bc
00000350: 274e ccbd 4f25 4f3d fb50 16bd 33fd ca3e
00000360: 11b7 2f3e 1e8c 833e 9422 b7be 825e a33e
00000370: 1751 963e 7dfa 79be 030f 21bd a2e7 06bf
00000380: 03d9 e0bc 6e20 4a3d 0578 d23d 48a6 56be
00000390: 9ab7 e83c 73f4 6bbe 9ec4 cebe 9725 06bc
000003a0: 23bc 00be 8952 36bd f40b 223e ff05 bf3e
000003b0: daca 8dbe e2bd 293e 3b4e 883d 00ac d53d
000003c0: 38a3 d23e b6df ca3d 6c8b 183e 38bb a5be
000003d0: a834 813e 9bb2 3cbe df01 6e3e fd4f dabe
000003e0: 46d3 0d3e 9061 7abe ee6f 51bd ff96 273e
000003f0: fde8 50be 6f7b 29bd 1401 1f3e 4857 993e
0.03678351 -0.07835738 0.011062567 0.058205042 -0.05143122 0.010092301 -0.115848176 -0.078673236
-0.0659644 0.029539647 -0.058287833 -0.099608585 -0.075293526 -0.062187333 0.013229382 0.07987309
0.04978359 0.10542267 -0.11924889 -0.069402 -0.2430891 0.0024718987 -0.07897141 -0.08205359
0.039291196 -0.10358994 -0.27396902 0.0754239 -0.105454445 0.0048710224 0.0068384907 -0.012694546
-0.014842357 -0.08233513 -0.15778163 -0.21212071 -0.10903459 -0.04742875 0.17071643 0.059644528
-0.045663048 0.020648856 -0.018664004 0.13912259 0.010368555 0.097915806 0.0033347707 -0.045387533
0.09908741 -0.09284478 -0.0332098 0.07959332 0.02813562 -0.026023567 -0.09027654 -0.33047342
-0.07493452 -0.14633404 0.11680998 0.09347277 -0.024110483 -0.047368772 0.061471816 0.05781469
0.110628344 -0.031089263 0.0226184 0.28503793 0.043229688 0.14649388 0.078607015 0.13516003
0.13472639 -0.06496892 -0.14914891 -0.12197467 -0.019702753 0.04814357 0.09958177 -0.112143874
-0.111559905 0.040837314 0.069542676 -0.03945707 -0.16906166 -0.08254723 -0.09519038 -0.10869033
-0.070096426 -0.12127391 0.049720652 0.1047789 0.119546555 0.15193501 0.05669997 0.107988164
-0.00035366422 0.12057998 0.009150835 -0.11619776 -0.018277785 0.11075777 0.0033556067 0.07416409
0.16381614 0.038805086 -0.05065475 0.016855726 0.030344404 0.17729764 -0.09301715 0.025941033
-0.16292815 -0.094956465 -0.011144468 0.06379028 -0.08997788 0.07057284 -0.103989586 -0.049978483
0.073317215 -0.0024248976 -0.054276884 -0.023784509 0.047125626 -0.08856279 0.048844934 -0.09039341
0.055991426 -0.01075175 0.2076498 0.21003345 -0.001085832 0.009558059 0.12084557 -0.009581197
0.090743095 -0.10067964 0.060164724 -0.19057265 0.0340058 -0.025062691 0.15726827 0.014705785
-0.13312939 -0.14112337 -0.05677987 0.201626 -0.10036757 -0.16464454 0.17103797 0.018702194
0.039848343 0.040021323 -0.18070044 -0.121538416 -0.08382361 0.00902663 0.053210504 -0.09959948
-0.16904761 -0.07688867 0.013136122 -0.13025354 -0.09834615 0.021157578 0.077938974 -0.040271338
-0.051760815 0.09267681 -0.1331582 0.08651223 0.0012055367 0.13974315 0.18203141 0.15244694
-0.062284715 0.007103691 -0.08685767 0.124476135 0.062216662 -0.013065531 0.15542974 -0.19047019
-0.026963014 0.030002594 0.11280966 0.08894244 -0.058738317 0.18277436 -0.13715608 -0.003239448
-0.18392922 0.074359484 -0.19529356 0.4029093 0.08990211 -0.24601659 -0.23169301 -0.10367679
-0.1764409 -0.25601774 0.28631872 0.056940652 0.3928937 0.25262266 -0.10751884 0.2275832
0.20494832 0.039365467 -0.3850778 -0.015115162 -0.09975844 0.05057269 -0.036698323 0.396463
0.17159678 0.25692838 -0.3576857 0.3190804 0.29358742 -0.2441196 -0.039320957 -0.52697194
-0.02744723 0.049347334 0.10276798 -0.20961869 0.02840786 -0.23042469 -0.40384382 -0.008187673
-0.12571768 -0.044512305 0.15824872 0.37309262 -0.27693826 0.16576341 0.06655546 0.10433197
0.4114015 0.09905951 0.14896935 -0.323694 0.25235486 -0.18427508 0.23242901 -0.4263915
0.13850126 -0.2445128 -0.051132135 0.16366194 -0.20401378 -0.04137748 0.15527755 0.29949403

lstm.bias_ih_l1 f4 [256]
00000000: bbee 6bbd 1812 bfbd df1f b03c bc72 253e
00000010: 07ec 943c b727 f13d 31ce cbbd 2be5 1abc
00000020: ad59 f43d 20be 8f3d ebad 4d3e 0fc0 abbd
00000030: b9eb ba3b d099 243d 394f 0dbe 2e7c 09be
00000040: a68d fd3d a1e1 b5bd d8c0 b63d 3499 2abe
00000050: f5f8 31bd 5031 263d 99aa b93d 80d9 fdbd
00000060: 4a9e c53c 5ed0 283d 6a8c 323c 7b70 68be
00000070: 1e2b 0dbe 903d d5bd 7742 8abd 15b1 813e
00000080: d3b2 31be afbf a83d 828e d03d 3711 473e
00000090: 9af5 9e3c 6cab b73d dc0e 313d e60c 673d
000000a0: 98c1 133e 0c8e 153d 5883 a83d 4d42 95bc
000000b0: a0f8 02be c0cd 023e 7620 dd3d f2bb 81bd
000000c0: e31a 083e 9ce7 aa3d c579 5e3d bb36 94bd
000000d0: 6f12 0e3d 7972 4fbd f070 963e 170e 853e
000000e0: 90c4 f73d 7935 afbd 10fe 4abd e73a 543e
000000f0: 15e6 23bd 13af 9f3c 0b62 25bd cd20 63bd
00000100: 4cfc 323d eae5 2cbe 41cd 8e3d 6a8d a9bd
00000110: de1f 913d 022e a4bc 3e67 013d dce0 803d
00000120: 80db ea3c 48f6 8fbd 3e7b 043e 99f0 76bd
00000130: 94fe ac3d 55a4 f43d b800 95bd 1398 263d
00000140: 0891 f73c 5e52 053e cba0 b03d b035 3fbd
00000150: eb47 9d3d 32dc 43bd 67e1 7b3e 6337 02be
00000160: 8f51 ce3d ccf2 283e 58e5 033e 0ebd a4bc
00000170: 6f33 833d 26de 373e 0486 5f3d e95c f6bc
00000180: d8aa 613d a964 9c3e a511 733d c558 11be
00000190: a89f d13d b298 a7bd b275 8a3e e056 0b3e
000001a0: a721 26bd f4a0 183d b131 b23d 112a 0fbd
000001b0: 89a2 d8bd e6b2 54bd 54b9 063d ea01 a9bd
000001c0: a5f2 d13d 3ac4 063e 859d 863c fb1c 8a3d
000001d0: 87b5 193e dfc6 2ebe b30d a73e 821c a33d
000001e0: c399 713e 19bf 803d da59 173e f260 133e
000001f0: adff 4ebc 7afa 1f3e d8f6 7d3d 7ccc 2e3e
00000200: 2df8 c8bd 8910 ee3d b2ba 533d 3409 dabd
00000210: 7b63 a7bd 7857 dbbd 5d14 91bb f8ca bd3d
00000220: ce02 d4bd a329 823d 43e8 a33d 6d8d 20bd
00000230: 72ec 003e 3666 e33d 36f2 d8bd baf4 943d
00000240: b2de 533e 9147 2abb 7eea ebbd 60c9 edbd
00000250: b558 e53b 5891 a23d a944 07bc 3492 f43d
00000260: a661 6c3d 9624 9bbc 53cb 85bd a037 bb3d
00000270: 67ca 223e 397b b2bd ae23 2d3d d685 49bc
00000280: 789e c03d ca46 2dbc 3fb1 abbd 1824 aebc
00000290: 4213 45bd 136a aebd af6e f33c 211e 3abe
000002a0: c28f 5bbd f03f bdbd 64de 6c3d d12b 0abd
000002b0: a91a e3bc 6f8c 81bc 2083 86bd 56b3 37bc
000002c0: bb32 73bd 21c5 1d3e 732d f73d 6aeb b13d
000002d0: e9fb 0c3e 6944 723d 81b2 c4bd 361d 0cbd
000002e0: afa2 cc3d d7a3 b23b a3d4 12be f837 123e
000002f0: 9af3 0a3d b9dd 9fbb ee12 38bb 7f16 0b3e
00000300: 2acb c2bc 0f50 02be 02e0 70bd d9c6 723e
00000310: d0a1 8bbd 76be fcbc 472d 0b3c 9ddb 20be
00000320: 1406 adbd 0bf0 f9bc 38d3 263d c11a 973d
00000330: a793 80bd 3460 25bc bac3 3f3d 5343 0ebe
00000340: 30b0 01bd c235 16bd e196 c3bd 7949 f3bd
00000350: 22a1 d93c cd4e 8abd f637 493d 3687 b53d
00000360: 87f7 a53d 745d b63d e81b a23d 9bf0 29be
00000370: 5ecd 05bd e3b4 af3b 0361 3fbd 8aa4 703e
00000380: 0f9f 34bc 1638 a93e cb9e 59bd df61 9a3d
00000390: 60f3 673b 8a62 52bc 641d af3d 6234 2dbd
000003a0: d11e 863d e119 d73d e295 4d3e 4da4 9bbc
000003b0: 79fb 4abb ee70 4b3e 09c0 37bc c63f cf3d
000003c0: 5b01 693d e8b6 473d 5aa5 c9bc b534 35bd
000003d0: 72f9 bd3c 7d81 33bd 9c6e 833d 1200 813e
000003e0: 9368 023e 880d 1cbe 7b51 bfbd 13e5 643d
000003f0: 3360 1dbd da6e 153e 3076 84bd 16c9 4abc
-0.057600718 -0.09329623 0.021499572 0.16157049 0.018178953 0.11775153 -0.09951437 -0.009454052
0.11931167 0.07018685 0.20085876 -0.08386242 0.00570437 0.04018575 -0.13799752 -0.13426277
0.12380533 -0.08880926 0.08923501 -0.16660005 -0.043450315 0.04057437 0.09065742 -0.123950005
0.02412333 0.04121434 0.010897735 -0.22699158 -0.13785979 -0.10412133 -0.067509584 0.25330415
-0.17353372 0.08239686 0.10183431 0.1944016 0.019404221 0.08968243 0.04322706 0.056408785
0.14429319 0.03651242 0.08228177 -0.018220091 -0.12790155 0.127738 0.10797207 -0.06334676
0.13291506 0.08344957 0.054315347 -0.072370015 0.03468555 -0.05064628 0.2938304 0.25987312
0.12098038 -0.08555121 -0.0495587 0.20725594 -0.040014345 0.019492662 -0.040376704 -0.055451203
0.04369764 -0.1688458 0.06972743 -0.08278926 0.07086156 -0.02004147 0.0315926 0.062928885
0.028669119 -0.07029396 0.12937638 -0.060288046 0.084469944 0.11945406 -0.07275528 0.040672373
0.030220523 0.13019702 0.08624419 -0.04668206 0.07679733 -0.047817416 0.24597703 -0.12716441
0.1007415 0.1649887 0.12880456 -0.02010968 0.064062946 0.17955837 0.054571167 -0.0300736
0.05509457 0.30545548 0.059343 -0.14194019 0.1023553 -0.08183421 0.2704292 0.13607359
-0.040559437 0.03726287 0.08700884 -0.034952227 -0.10577876 -0.051928423 0.032891586 -0.08252318
0.10251359 0.13160792 0.016432533 0.06743809 0.15010653 -0.17068051 0.3262764 0.07964422
0.23593812 0.06286449 0.1478037 0.1439245 -0.0126342 0.15622893 0.062002987 0.17070192
-0.09812961 0.116242476 0.05169172 -0.106462866 -0.08173271 -0.10710043 -0.0044274763 0.09267229
-0.103520975 0.06355598 0.08003285 -0.039197374 0.12590197 0.111034796 -0.10593073 0.072732404
0.2069042 -0.0025982598 -0.11519335 -0.11610675 0.0069991 0.07937878 -0.008256116 0.119419485
0.057710312 -0.018938344 -0.06532922 0.09141469 0.15897523 -0.08714909 0.042270355 -0.012299975
0.094052255 -0.010575959 -0.083834164 -0.021257445 -0.04811407 -0.08516326 0.029715864 -0.18175556
-0.053603895 -0.09240711 0.057829276 -0.033733193 -0.027722673 -0.015814034 -0.06567979 -0.011212191
-0.059374552 0.1540723 0.120692156 0.0868748 0.13767971 0.059147272 -0.096043594 -0.034207545
0.09991967 0.00545166 -0.14338927 0.14279163 0.033923723 -0.0048787263 -0.0028087455 0.135828
-0.023778517 -0.12725852 -0.05880738 0.23708667 -0.06817973 -0.030852538 0.008494682 -0.15708776
-0.08448425 -0.03050997 0.040728778 0.0737815 -0.062781624 -0.010093737 0.04681752 -0.1389287
-0.031662166 -0.03667236 -0.09550262 -0.11879248 0.026566092 -0.06753311 0.049125634 0.0886368
0.08103853 0.089045435 0.07915479 -0.1659569 -0.032666557 0.0053621395 -0.046723377 0.23500267
-0.011024251 0.33050603 -0.053129952 0.07538199 0.0035392866 -0.012840876 0.08550528 -0.042286284
0.065488465 0.10502983 0.20076707 -0.018999243 -0.0030972643 0.19867298 -0.011215218 0.10119586
0.05688606 0.048758417 -0.024614979 -0.04423972 0.023190234 -0.04382466 0.064175814 0.25195366
0.12735204 -0.15239537 -0.09341713 0.055882525 -0.03842182 0.14593068 -0.06467855 -0.012377044

lstm.bias_hh_l1 f4 [256]
00000000: 0b44 f3bc 6a46 303d 52e2 1fbe 79e3 913e
00000010: f0ab 7f3c a2ae 0c3c a169 93bd 3270 cb3c
00000020: 40ad f9bd 8459 c83d 41ca 3c3e 6954 9fbd
00000030: 27b7 5f3e fdd8 dd3d d5ac 92bd f91f 4c3d
00000040: ee42 443e 4574 833d 745b 8bbd 9e5b 59bd
00000050: 10f2 1d3d 878f 80bd 7a6c 1e3e ad30 643d
00000060: 43e8 cd3d b737 073e 9265 14bd 706b d0bd
00000070: 1c2c aebd 0407 8d3d d0b1 f2b9 c98f 623e
00000080: 6202 a13c 9d91 8a3d 329a 8dbd 3858 023e
00000090: ac86 24bd 7a61 d4bd d696 5e3d ff4d 2e3e
000000a0: 91e3 43bb 3c9b 8e3d 69d6 843d fa4f e4bd
000000b0: 4277 bfbc de4c 533e f7eb 07bd 8d6d 63bd
000000c0: 2883 d93d 9acd c9bd a8e1 153b 8891 7d3c
000000d0: 10c4 e4bc 477b a5bc 823a 073e bc88 223e
000000e0: 3249 c53d e95b 28bd b1af 9abd 03e7 1d3e
000000f0: 7463 473b 9f15 ddbc 4dff e93d 3145 a83d
00000100: 2b4b b23d c0e2 14be edb5 5cbd 7e9b a0bc
00000110: d945 003d bdf2 203d 0f08 18be 13da 663d
00000120: d460 513e f7eb f2bd 3a21 26bd 3c41 56bc
00000130: 2887 4f3d a9ca 1c3e 41b1 c33c 242b 2a3c
00000140: 4cb0 e33d b2f8 183e 04c3 843d dcf4 8ebd
00000150: 4b87 493e f5ab 733d 662d 8c3e c97f b73c
00000160: 4302 6a3d bcb4 1e3e 9f67 c03d d1a8 c0bd
00000170: 4eb1 3bbd 5ea0 803d 24e8 303d 28b8 75bd
00000180: a059 3f3e 2921 c53e 0fac 313e d0b5 52bd
00000190: c7c9 69bd 3fe9 a13c cd1b f43d 0257 323e
000001a0: badd 7dbd b7eb f53d 057b e4bd cb07 c7bc
000001b0: 1818 5c3d 56b9 a1bd fabb 39bc 79ce 3c3d
000001c0: e31f a1bc ce52 95bc 4f73 d23c 4366 8b3a
000001d0: 32cd 173d 12b6 aebd 8d77 b03e 200a 9c3d
000001e0: b505 b43d e8c8 973d 0497 ef3c cce9 9e3d
000001f0: 06d5 bdbd 8edc 703e 68ec 1e3e 4f65 963d
00000200: 8777 363d 1d7e b13d 4e96 0abe 7885 cb3d
00000210: 777f e53d 8826 b2bd cc83 00be 8935 48bc
00000220: 284b fabd 32d9 3abd 0cb9 a2bc 058c 5e3d
00000230: 52ba 003e 80b3 c33d 140f c13d a087 043e
00000240: f62d 463e eb87 133e 864f 58bd e067 5f3d
00000250: c127 31be 72c1 83bd c33c 12be af37 93bd
00000260: e248 00be 81de 84bd eb5b 89bd 5c31 143d
00000270: cdba 953b 9af7 17be 56c3 3dbd 90c1 c53d
00000280: d472 9dbd 8289 52bd ef6a 3dbe 4301 ee3d
00000290: e053 813d a104 e2bc 9dcb 9bbc ed1c 19be
000002a0: 15ac dc3d b88c c5bc 4fe9 2d3a 6ba0 a13d
000002b0: 4d30 d6bd 2a7c 923d cbf6 b4bc b435 3abd
000002c0: 3d3d 103d f108 6bbd e01c 253e 5cc0 a9bc
000002d0: 376f 253e 40ad dfbb 0374 e23d 11dc 81bd
000002e0: 1395 dd3b b186 9abb eb5f 4f3d 8dea 95bd
000002f0: 9405 153d 9e2f 59bd b70b 113e 66f2 8d3d
00000300: 4a3b f03c 5bec bb3b b7f9 efbd 5e0e 603e
00000310: af59 903c ed21 1fbe 6250 dcbd 6c0f 843b
00000320: 9709 c9bc fc61 f9bd 2d36 013c 76b7 e83d
00000330: 944f 43bd 077a 9fbd eae1 cb3d 5e98 283d
00000340: a770 4e3d c9d4 903c 0dd6 ac3d d30b c1bd
00000350: 03ac bf3d d65f 68bd ecf5 c23d 13a0 e33d
00000360: 5d09 15bd 6ace a53d 54fe eb3d d73c 3abe
00000370: 3d80 d63d 4a75 573d 0dcc 733d e6ba 143e
00000380: 6b8e bd3c d9d3 cf3e 7983 bf3c bd74 043e
00000390: 2373 b13d 5f5c 453d 3845 883d d60a 153d
000003a0: 4286 543e f91a 453e 1468 533d e18f d0bc
000003b0: 6e6b bebc ff67 903e 63ae 2e3e 39d3 f83d
000003c0: b7da 853e 423b 943c d320 793d 25e3 d5bd
000003d0: 74a0 343e 0edf 603b 7a8c 783d 37b6 843e
000003e0: d381 9dbd b45b a63d 1db8 8fbd fc17 113e
000003f0: dcc3 073e 6a9c c43c 82b9 c53d 1444 dfbd
-0.029695531 0.043035902 -0.15613678 0.2849386 0.015604958 0.008586558 -0.071978815 0.024833772
-0.12191248 0.09782699 0.18436529 -0.07779772 0.21847211 0.10832403 -0.07161871 0.04983518
0.19166157 0.06418661 -0.06804553 -0.05306589 0.038560927 -0.06277376 0.15471068 0.055710483
0.10054066 0.13204847 -0.036229677 -0.10176742 -0.08504507 0.06886104 -0.00046290318 0.22125162
0.019654457 0.06766055 -0.06914176 0.12728965 -0.040167496 -0.10370155 0.054343067 0.1702194
-0.0029890279 0.06963202 0.06486208 -0.11148067 -0.023372296 0.20634791 -0.033184018 -0.055524398
0.10620719 -0.098536685 0.0022870097 0.015476592 -0.027925521 -0.020200385 0.13205913 0.15872473
0.096331015 -0.041103277 -0.07553042 0.15420155 0.003042427 -0.026987849 0.11425648 0.08216322
0.087057434 -0.14539623 -0.053884435 -0.019605394 0.031316612 0.039293993 -0.14846824 0.056360316
0.20447093 -0.11861413 -0.04055903 -0.0130770765 0.050666004 0.15311684 0.023888232 0.010386262
0.1111761 0.1493862 0.06482509 -0.06980297 0.19680516 0.059490163 0.27378386 0.0223998
0.057131063 0.15498632 0.09394764 -0.09407199 -0.045823388 0.062805876 0.043190137 -0.05999008
0.18686533 0.38501862 0.17350791 -0.05144292 -0.057077195 0.01976454 0.11919365 0.17416003
-0.061979033 0.1200785 -0.111562766 -0.024295708 0.053733915 -0.07896678 -0.011336321 0.046095345
-0.019668525 -0.01822796 0.025689749 0.0010635335 0.037060924 -0.08530821 0.3446621 0.07619119
0.08790151 0.07411367 0.029246815 0.07759437 -0.092691466 0.23521635 0.1551987 0.07343542
0.044547584 0.08666632 -0.13533899 0.099375665 0.112059526 -0.086987555 -0.12550277 -0.012219795
-0.12221366 -0.04561729 -0.019863628 0.05433275 0.12571076 0.09555721 0.09426704 0.12942362
0.1935347 0.14407317 -0.052810214 0.054542422 -0.17300321 -0.06433381 -0.14280991 -0.07188355
-0.12527803 -0.06487752 -0.06706985 0.036179885 0.0045693875 -0.14840546 -0.046328865 0.0965606
-0.07687917 -0.05140067 -0.18497823 0.116213344 0.06314826 -0.027590098 -0.019017989 -0.1495244
0.107750095 -0.024114951 0.0006634192 0.078919254 -0.104584314 0.07152589 -0.022090336 -0.04546137
0.03521465 -0.057381574 0.16124296 -0.020721607 0.16155706 -0.006826073 0.11057284 -0.063408025
0.006762156 -0.0047157635 0.050628584 -0.07320128 0.036382273 -0.053023927 0.14164625 0.069309995
0.029325146 0.005734963 -0.11717551 0.2188048 0.01762089 -0.15540285 -0.10757519 0.0040301587
-0.024540706 -0.12176892 0.007886452 0.113631174 -0.047683313 -0.07786947 0.09955199 0.041160934
0.050400402 0.017679589 0.084392644 -0.094260834 0.093589805 -0.05673202 0.09519562 0.11114516
-0.036385883 0.08096011 0.115231186 -0.18187271 0.10473678 0.05260209 0.05952077 0.14524421
0.0231392 0.40591314 0.02337812 0.12935157 0.08664539 0.048183795 0.066538274 0.036387287
0.2075434 0.1924857 0.05161293 -0.025459232 -0.023244586 0.28204343 0.17058711 0.121496625
0.2614343 0.018094663 0.06082232 -0.10443715 0.17639333 0.0034312638 0.060680844 0.2592027
-0.07690778 0.0812296 -0.07017539 0.14169306 0.13258308 0.024000365 0.096545234 -0.10901657
